Real_Data/Covid_Policy_Tracker/China/model.pt (torch, 50891 bytes, 28 tensors)

delta_matrix f4 [17, 17]
000000 b2 b1 06 41 4b 49 ea 40 14 32 16 41 9f 0f 15 41
       8.418383 7.321447 9.387226 9.316314
000010 7d 5c 39 41 9f eb 45 41 10 e7 28 41 d9 3d 3c 41
       11.58508 12.370025 10.556412 11.7651
000020 f2 5b f9 40 ea 03 1a 41 0c a0 16 41 4c 87 3b 41
       7.792474 9.625956 9.414074 11.720531
000030 cf b7 27 41 b9 04 28 41 0c e6 27 41 49 45 28 41
       10.482375 10.501153 10.493664 10.516915
000040 00 00 20 41 b2 3e 4b 41 fe 4c 59 41 ec d0 29 41
       10.0 12.702806 13.581297 10.613506
000050 a9 d5 4a 41 b4 60 05 41 f0 86 ea 40 c1 44 fa 40
       12.677163 8.336109 7.328972 7.820893
000060 3d e8 cb 40 f1 cd 36 41 e3 ce ec 40 d4 ab 27 41
       6.3720994 11.425279 7.4002547 10.47945
000070 75 82 ad 40 6b 6d 05 41 23 b7 28 41 78 b9 17 41
       5.422175 8.339213 10.544711 9.48278
000080 27 29 2c 41 00 00 20 41 02 46 2a 41 3d 99 2a 41
       10.760047 10.0 10.642092 10.662412
000090 2d bb 29 41 b8 42 2a 41 fd c6 15 41 19 a0 07 41
       10.608197 10.641289 9.361081 8.476586
0000a0 82 e6 13 41 09 6b 14 41 dd e6 29 41 3d 5e 08 41
       9.243776 9.276132 10.618863 8.523007
0000b0 e4 c3 29 41 d2 d3 28 41 45 55 17 41 45 ab 16 41
       10.610325 10.551714 9.458318 9.416814
0000c0 fd 4e 28 41 6c 34 28 41 00 00 20 41 c4 76 44 41
       10.519284 10.512798 10.0 12.2789955
0000d0 a4 c0 49 41 ae c4 29 41 62 8f 44 41 3b 4d d9 40
       12.609531 10.6105175 12.285006 6.7906775
0000e0 a3 38 e8 40 72 53 fe 40 c4 ad 61 40 3d 21 3b 41
       7.2569137 7.947686 3.5262308 11.695615
0000f0 f3 48 e6 40 4d 81 29 41 2f 35 c4 40 71 ac 13 41
       7.196405 10.594068 6.131492 9.2296
000100 97 46 16 41 ed 5c 17 41 2e 76 28 41 00 00 20 41
       9.392234 9.460187 10.528852 10.0
000110 4c 2c 48 41 53 11 47 41 39 e8 29 41 9d d5 4a 41
       12.510815 12.44173 10.619195 12.677152
000120 33 b2 af 40 f4 f3 c9 40 75 27 38 41 56 ed 3a 41
       5.490503 6.3110294 11.509633 11.682943
000130 87 69 4c 41 95 09 27 41 42 d0 29 41 76 06 ab 40
       12.7757635 10.439839 10.613344 5.3445387
000140 3e d9 fa 40 48 55 2d 41 ad 99 28 41 a3 bb 28 41
       7.839019 10.833321 10.5375185 10.54581
000150 00 00 20 41 aa db 48 41 8e cd 48 41 a9 bf 16 41
       10.0 12.553629 12.550184 9.421792
000160 87 d7 56 41 b2 13 ed 40 10 f3 86 40 e1 1c ed 40
       13.427619 7.408654 4.2171707 7.4097753
000170 3b c3 17 41 e3 04 28 41 df 16 19 41 b1 a1 36 41
       9.485164 10.501193 9.568084 11.414475
000180 65 97 15 41 28 35 1a 41 6c be 27 41 9d 68 17 41
       9.349462 9.637978 10.48399 9.46304
000190 61 6e 19 41 00 00 20 41 01 0c 03 41 ca ef 13 41
       9.589448 10.0 8.190431 9.246042
0001a0 a0 ff 15 41 25 4f f9 40 87 83 04 41 31 b3 26 41
       9.374908 7.790911 8.282111 10.418748
0001b0 34 f8 48 41 e1 3d 17 41 1a 8c 48 41 b1 77 08 41
       12.560596 9.452607 12.5342045 8.529222
0001c0 91 dc 36 41 b8 f8 ea 40 57 c4 13 41 7a 76 32 41
       11.428849 7.342861 9.235435 11.153925
0001d0 ba db 26 41 3c 69 27 41 00 00 20 41 70 8b e9 40
       10.428644 10.463192 10.0 7.298271
0001e0 35 6a a5 40 52 94 15 41 e5 fe ea 40 a1 69 07 41
       5.1692147 9.348711 7.343615 8.463288
0001f0 f6 82 4b 41 13 c0 3a 41 39 4d 06 41 04 8c 28 41
       12.719473 11.671893 8.393853 10.5341835
000200 58 57 17 41 fb ac 3a 41 e6 fc 61 41 46 ba 3a 41
       9.458824 11.667232 14.124243 11.670477
000210 32 1c 18 41 e5 2c 28 41 67 de 27 41 00 00 20 41
       9.506884 10.510961 10.491797 10.0
000220 61 3b 15 41 c1 06 15 41 97 38 16 41 5f f1 18 41
       9.326997 9.314149 9.388816 9.5589285
000230 dc d6 03 41 f7 e1 0c 41 10 49 28 41 9a 04 38 41
       8.239956 8.805167 10.517838 11.501123
000240 20 1c 4c 41 13 bd 14 41 41 b8 28 41 fd 9b 15 41
       12.756866 9.296161 10.544984 9.350583
000250 e1 71 30 41 4b 6a 2c 41 cd ce 28 41 ca bd 26 41
       11.027802 10.77595 10.550488 10.421335
000260 00 00 20 41 76 f4 24 41 00 ad 2a 41 d7 67 29 41
       10.0 10.309683 10.667236 10.587852
000270 27 1b 22 41 3b 64 57 41 3b 0a d1 40 c7 21 4b 41
       10.131629 13.46197 6.532499 12.695746
000280 44 0b 58 41 13 ce 27 41 bd 36 13 41 8b 91 28 41
       13.50275 10.487811 9.200864 10.535533
000290 82 98 16 41 b1 81 3a 41 56 b0 2b 41 fb b7 28 41
       9.412233 11.656663 10.730551 10.544917
0002a0 27 42 16 41 00 00 20 41 85 82 15 41 0f 49 4b 41
       9.39115 10.0 9.344365 12.705337
0002b0 28 71 29 41 75 5d 15 41 00 dc 3b 41 e9 3c 17 41
       10.590126 9.335317 11.741211 9.452371
0002c0 c8 a3 71 40 36 ee 2a 41 53 90 29 41 f9 0e 2a 41
       3.7756214 10.683157 10.597735 10.628655
0002d0 72 8e 13 41 90 d8 29 41 e9 05 17 41 0c 43 09 41
       9.222277 10.615372 9.438943 8.578869
0002e0 6f 9e 28 41 98 bf 25 41 00 00 20 41 54 8b 06 41
       10.53868 10.359276 10.0 8.409016
0002f0 14 99 04 41 7d 26 16 41 42 6e 14 41 92 dc 2a 41
       8.287373 9.384397 9.276918 10.67885
000300 02 32 29 41 d5 8b 2a 41 76 2f 2a 41 a8 f8 15 41
       10.574709 10.659139 10.636587 9.373207
000310 04 fc 18 41 cc 51 16 41 b7 e0 29 41 04 1b 29 41
       9.561527 9.39497 10.617362 10.569096
000320 bf ec 15 41 07 6a 17 41 eb d5 17 41 00 00 20 41
       9.370299 9.463386 9.489726 10.0
000330 82 c0 06 41 62 31 03 41 12 81 17 41 a0 69 03 41
       8.421999 8.199556 9.469011 8.213287
000340 22 ec 14 41 99 05 3a 41 07 01 2d 41 62 8b 05 41
       9.30765 11.626367 10.812751 8.346529
000350 a7 84 28 41 29 2f 1a 41 01 53 3b 41 72 de 2a 41
       10.532386 9.636514 11.707765 10.679308
000360 82 59 14 41 96 9b 39 41 f3 25 18 41 e2 ef 17 41
       9.2718525 11.600485 9.509265 9.496065
000370 00 00 20 41 18 a8 13 41 6c 9b 06 41 29 b7 15 41
       10.0 9.2285385 8.412945 9.357217
000380 21 e2 14 41 f7 89 2a 41 c1 66 2a 41 14 5c 2c 41
       9.305207 10.658683 10.650086 10.77248
000390 08 4f 28 41 92 b2 14 41 66 da 27 41 72 c8 2a 41
       10.519295 9.293596 10.49082 10.673937
0003a0 43 de 29 41 ef 0d 28 41 08 f6 2a 41 e2 57 17 41
       10.616763 10.503402 10.685066 9.458956
0003b0 f8 a3 17 41 00 00 20 41 c4 10 17 41 bf 09 17 41
       9.477531 10.0 9.441593 9.439879
0003c0 1f 53 27 41 64 f2 16 41 d3 e8 28 41 20 e0 28 41
       10.457793 9.434177 10.556842 10.554718
0003d0 25 d1 28 41 8d c2 28 41 e1 a2 28 41 d5 7c 28 41
       10.551061 10.547498 10.539765 10.530477
0003e0 47 17 19 41 5e f6 29 41 59 b0 28 41 e7 a3 28 41
       9.568183 10.622648 10.543054 10.540015
0003f0 a8 a0 28 41 be c7 27 41 00 00 20 41 41 89 15 41
       10.539223 10.486265 10.0 9.346009

weight f4 [18, 16]
000000 00 00 00 00 00 00 00 00 00 00 00 00 00 00 00 00
       0.0 0.0 0.0 0.0
000010 00 00 00 00 00 00 00 00 00 00 00 00 00 00 00 00
       0.0 0.0 0.0 0.0
000020 00 00 00 00 00 00 00 00 00 00 00 00 00 00 00 00
       0.0 0.0 0.0 0.0
000030 00 00 00 00 00 00 00 00 00 00 00 00 00 00 00 00
       0.0 0.0 0.0 0.0
000040 2d 4d b4 3f e3 03 62 3f 1d 2d 97 3f a4 54 56 3e
       1.4086052 0.8828718 1.1810642 0.20930725
000050 98 ac 12 c0 05 c2 8e 3f 86 f1 de 3e 15 c6 6f bf
       -2.2917843 1.115296 0.43543643 -0.93661624
000060 4a f5 a9 bd 20 ac 5d bf 36 d6 f5 bd f0 e5 ab 3f
       -0.08298738 -0.86590767 -0.12003748 1.3429546
000070 47 92 a4 3f ba 64 39 bf 82 db c0 3d 8c cf 6a 3f
       1.285714 -0.7241932 0.09416868 0.9172294
000080 7b 7a 50 bf a0 0c 00 3b 48 4b 70 bf 31 40 a0 3f
       -0.8143689 0.0019538775 -0.9386487 1.251959
000090 06 ed d3 bf 70 a5 23 bf 19 6b 77 3e ef 0f 80 bf
       -1.6556709 -0.6392431 0.24161948 -1.0004863
0000a0 1a bb 01 3f 63 2c 18 3e d9 aa aa 3f 8f c5 d8 3f
       0.5067612 0.14860682 1.3333389 1.693529
0000b0 cc 46 9d bf 96 ec 8d be f1 85 02 c0 2e fd a4 bf
       -1.228723 -0.27719563 -2.0394251 -1.2889764
0000c0 2e a6 38 bf 7c be 17 bf c3 9e 50 bf 21 26 35 bf
       -0.7212857 -0.5927503 -0.8149225 -0.70761305
0000d0 22 fe e2 bf 43 14 a8 bd e2 b7 b7 bf 8b c7 33 be
       -1.7733805 -0.082069896 -1.4352992 -0.17556588
0000e0 6b c7 ac 3e aa db 18 40 07 14 62 3f 18 d2 26 3f
       0.33745894 2.3884072 0.8831181 0.6516433
0000f0 67 56 36 bf a6 a8 6e 3d 61 e9 c0 3e cf 22 45 bf
       -0.7122559 0.058266304 0.37678054 -0.7700624
000100 16 c8 dd 3f ee d5 50 3f 1e 40 47 3f 95 ee 05 3f
       1.7326686 0.8157643 0.7783221 0.5231717
000110 4f 86 a7 3d 8a b6 df 3f 7d 75 e4 3f e0 e7 ae 3e
       0.08179914 1.7477582 1.7848355 0.34161282
000120 b6 de b3 3e 93 14 99 bf 4f 63 5d 40 1c 66 4a 3f
       0.35130852 -1.1959404 3.4591863 0.79062057
000130 27 5a 69 3f 3c f9 34 3f 52 22 66 be 8d 0c 9f 3f
       0.91153187 0.706928 -0.2247403 1.2425705
000140 d0 09 b1 be 49 8b 9b bf c6 84 1d 3f be a3 91 3f
       -0.345778 -1.2151881 0.6153072 1.1378095
000150 d2 17 10 bf 06 19 22 3f 25 aa bc bf 79 f8 0e 3f
       -0.56286347 0.6331943 -1.4739424 0.5584789
000160 22 e5 25 c0 2d 72 e7 bf 73 e6 0d bf 48 af f2 bf
       -2.5921102 -1.8081719 -0.5542976 -1.8959742
000170 32 f2 4b 3f b9 17 16 3e 61 93 c2 3f 29 e3 04 3f
       0.79666436 0.14657487 1.5201226 0.5190912
000180 9f 92 84 3e 93 73 80 3e 26 15 a9 3f 1b 77 27 bf
       0.25893113 0.25088176 1.3209579 -0.65416116
000190 1e 22 80 3f d0 13 52 3f 2c 55 08 bf db 88 95 bf
       1.0010412 0.8206148 -0.5325496 -1.168239
0001a0 67 1c 6f 3e 95 ee 1f bf 8b ad 75 bf 56 3e 27 c0
       0.23350678 -0.6247342 -0.9596793 -2.6131797
0001b0 71 a2 34 be 3c 05 8d be 74 9f d8 bf aa b1 05 be
       -0.17640091 -0.27543056 -1.6923661 -0.13056055
0001c0 d4 92 ed 3f 97 ac ef be 65 ba cd 3e 8e b3 ae be
       1.8560433 -0.46811363 0.4018127 -0.34121364
0001d0 12 7a b0 3f 50 cf a5 3f 03 9e d9 bd 39 bf 10 3f
       1.3787253 1.2953892 -0.106258415 0.5654178
0001e0 47 78 0a bf 12 d9 3c bf 91 9b a3 be bf 23 56 bd
       -0.5408978 -0.73768723 -0.31954625 -0.052280184
0001f0 46 9a f3 3e 23 fc 83 3f 31 46 df 3e 28 71 e5 bf
       0.4757864 1.0311321 0.4360824 -1.7925158
000200 62 63 f2 bc 7e 12 42 3e 7c c4 19 3e 23 7f 77 3f
       -0.029588405 0.18952367 0.15016359 0.9667837
000210 64 c5 7f 3e e3 68 80 be 6d 0f cf bd 94 8b 8c 3f
       0.24977642 -0.25080022 -0.10110364 1.0980096
000220 1f d2 03 bf 47 53 05 bf 58 8a 19 bf 65 c0 c1 bf
       -0.51492494 -0.52080196 -0.5997672 -1.5136839
000230 0b 4d 4b 3d 38 3a e8 3f 01 5d c9 3e ea 4a ee be
       0.04963402 1.8142767 0.3932877 -0.4654153
000240 9d 7b 02 3e df d4 e0 bf b2 f7 32 3f f7 20 8f be
       0.12742467 -1.7564963 0.69909203 -0.27954838
000250 60 56 0b 3f ec 2f da bf a8 04 ae 3b 55 a9 1b 3d
       0.5442867 -1.7045875 0.0053106137 0.038003284
000260 59 9e b5 3f 46 2f 16 3f b7 ab 1b 3f 12 c9 a3 3f
       1.4188949 0.58665884 0.6080889 1.2795737
000270 f5 11 3e bf 79 74 15 bf a6 57 a4 be 57 79 07 c0
       -0.7424615 -0.5838085 -0.3209812 -2.116781
000280 66 2e f6 3e a2 fe 4b bf 5f 66 78 3f 57 0f 42 3f
       0.48082274 -0.79685414 0.97031206 0.75804657
000290 cd 59 2b 3f c7 92 88 3f bd 62 3b bf 10 15 ba 3f
       0.669339 1.0669793 -0.7319754 1.4537678
0002a0 cb 7f 81 bf 7f dd aa be 36 4a 74 bf 8a 74 c0 3e
       -1.0117124 -0.33372113 -0.95425737 0.37588912
0002b0 74 aa b6 bf e7 a0 41 3f 51 73 e4 bf 0a 22 88 be
       -1.4270768 0.7563614 -1.7847692 -0.2658847
0002c0 d1 5c e6 3f 3b f1 95 3f 5e 3c bb 3f 93 88 8c 3f
       1.7997075 1.1714243 1.4627798 1.0979179
0002d0 95 13 12 3f 50 29 5c 3e ef 09 b7 3f d8 17 04 c0
       0.5706113 0.21500134 1.4299906 -2.0639553
0002e0 c1 8f 0a 40 d6 d2 10 3e 70 e3 22 c0 10 b3 02 40
       2.165024 0.14142928 -2.5451317 2.042179
0002f0 4d c7 71 3f 94 c9 98 bf 58 39 d8 bf 11 0b ab 3d
       0.94444734 -1.1936517 -1.68925 0.0835172
000300 1d 87 8e 3f fd 69 e4 be a3 ee 89 3e e5 c0 10 bf
       1.1134983 -0.44612113 0.26939878 -0.56544334
000310 48 5f ad bf 30 7f a4 bf 7b a8 39 bf 3e 29 10 c0
       -1.3544703 -1.2851315 -0.72522706 -2.2525172
000320 e7 21 9b bf 2b 52 8a bd 87 b2 80 bf 04 a1 9f bf
       -1.2119721 -0.067539535 -1.0054482 -1.2471013
000330 c3 db 2a 3f e2 29 05 3f 67 86 ae bf 58 10 4a 3d
       0.6674158 0.52017033 -1.3634766 0.049331993
000340 a1 8f d8 3f de cc 6e 3d 53 9c 78 be dc 6e 0a be
       1.6918832 0.058300845 -0.24278383 -0.13518852
000350 1e 9a 3e 3f b8 00 61 3e 73 7b 1b be 1b ec 35 be
       0.74453914 0.2197293 -0.15183811 -0.17765848
000360 5e 8e 89 be e1 31 c4 bf 7d fe 33 3c 9d b6 87 bf
       -0.2686643 -1.5327722 0.010985968 -1.0602604
000370 94 14 3c bf 1b 1b 7c 3e 6a e7 23 3f bc 14 92 3e
       -0.734689 0.24619715 0.64024985 0.28531444
000380 8b d9 2e 40 92 e1 a3 3e ee 55 66 3f c3 31 f1 3e
       2.7320278 0.32008034 0.8997487 0.47108278
000390 e6 d8 35 3f 83 7c c1 be 73 db 05 bf 25 ca b5 bf
       0.71034086 -0.37790307 -0.5228798 -1.4202315
0003a0 89 a5 7c 3f 1f e5 f5 be 61 2c 01 bf f6 05 eb 3e
       0.98690087 -0.48026368 -0.5045834 0.45902985
0003b0 b4 a8 fe 3e 48 be 88 3e 32 df c1 3e 6e 09 9b bf
       0.49738085 0.26707673 0.37865597 -1.2112253
0003c0 6a b3 6d 3f 94 81 2e c0 42 e5 8a bf ec d1 34 be
       0.9285189 -2.7266588 -1.0851214 -0.17658204
0003d0 a5 08 3e bf 74 7e 04 bf 03 82 a0 3e eb a8 2f bf
       -0.7423194 -0.5175545 0.3134919 -0.68617123
0003e0 71 af 21 3f e6 2f 08 bf 40 2b 0f bf 56 82 9e 3f
       0.6315833 -0.5319809 -0.5592537 1.2383525
0003f0 7c 4f a6 be 21 00 05 3f 0d 0e 15 bf e4 de 30 bf
       -0.32482517 0.5195332 -0.58224565 -0.69090104

weight f4 [64, 16]
000000 0f 01 c4 3d 56 81 1a 3e 71 cd b9 bd 09 14 0c be
       0.095705144 0.150884 -0.09072388 -0.13679518
000010 0c 6c 28 be ba d1 31 be ec 13 dc 3d a6 e5 a8 3b
       -0.16447467 -0.1736516 0.10745987 0.0051543294
000020 a9 6a 3b 3c e5 33 1d be df 36 ee 3d 47 fd 5f 3e
       0.011439004 -0.15351827 0.116315596 0.21873961
000030 33 65 7e 3e 18 fe ba 3d 0f a8 2a 3d ec cf 90 3d
       0.24843292 0.09130496 0.04166418 0.07070908
000040 49 11 65 be 57 43 76 bb 22 5e 11 3e 7f 9a c6 3d
       -0.22369875 -0.0037576759 0.14196065 0.096974365
000050 e8 ee 2d be 1b 28 9e 3d b7 83 64 3e ba f2 4a 3d
       -0.16985667 0.07722493 0.2231587 0.04954789
000060 87 37 00 be 5c db 08 3e 79 57 44 be 21 c3 7e be
       -0.12521182 0.13364929 -0.19173993 -0.24879123
000070 7a af 2b be 76 9a 22 3e 9c 88 19 be 83 69 7a bc
       -0.16766158 0.15879235 -0.14993519 -0.015283945
000080 a7 64 fd bd 71 5e 0a be bd d2 46 be 5c 61 24 be
       -0.123727135 -0.13512589 -0.19416328 -0.16052765
000090 18 bb 16 bc 1b d6 d7 3d 9d e6 aa bd 21 8f b0 3c
       -0.00919988 0.10538884 -0.08344767 0.021552624
0000a0 87 a2 91 3d 3b a4 30 be a8 e6 69 bc 5f 6a 51 be
       0.07111078 -0.17250149 -0.014276184 -0.20450734
0000b0 e5 7e 61 be 06 db 3b 3e db 91 ba bd cd 1b 4b be
       -0.22021063 0.1834527 -0.09109851 -0.19834824
0000c0 d6 c8 f1 39 5e 8b e6 bd 53 d9 c0 3d 21 6c ba bd
       0.00046116736 -0.11257051 0.09416451 -0.09102655
0000d0 78 65 5c 3e 96 2e 84 bd d6 ea 81 3e 15 5b 79 be
       0.21523082 -0.06454198 0.25374478 -0.24351151
0000e0 9e fe 85 3e 80 bb 2e be e6 af 48 3e f5 91 54 3e
       0.2617082 -0.17063713 0.1959835 0.20758803
0000f0 37 d2 4f be e1 3c 2b bd e9 27 72 bd 4f 57 e8 bd
       -0.20295034 -0.041806106 -0.059120093 -0.11344778
000100 9f eb 75 3e 1a a2 19 be 49 45 22 3d 57 79 2d 3c
       0.24015664 -0.15003243 0.039616857 0.010588012
000110 08 ec 42 bc 61 17 d1 bd c3 47 45 be fb e0 21 be
       -0.011897095 -0.10209537 -0.19265656 -0.1580848
000120 55 73 5f be 6b 24 3b 3e e0 65 a3 bd fe 62 32 3e
       -0.2182134 0.18275611 -0.079784155 0.17420575
000130 09 c0 20 3e 4b c9 85 be 66 8c 09 be f0 60 c5 bd
       0.15698256 -0.26130137 -0.13432464 -0.0963763
000140 8f 99 52 bd 79 57 96 3c 9e 8b a4 3c b1 5e 0c be
       -0.051415976 0.018352257 0.020086106 -0.13707997
000150 70 1b 1e be fb 8e d9 bd 89 c6 54 bd ee 10 47 3d
       -0.15440154 -0.106229745 -0.05194715 0.04860013
000160 42 a5 c9 bd 5c cc 04 bd 3e 7f 03 be 1b 2d 81 be
       -0.098459736 -0.032421455 -0.12841508 -0.25229725
000170 a1 1d 1d 3b 5d 1e 03 bd ab 6e 33 be a7 72 a8 3d
       0.002397396 -0.03201138 -0.17522685 0.08224993
000180 ec 05 78 3e e8 3f 3a be 9c 8c 8c 3a 3f 4d a4 bb
       0.24221009 -0.18188441 0.0010723057 -0.0050140913
000190 b4 d9 2a 3e c1 48 45 be 8e 4c bc 3d b5 47 26 be
       0.1668461 -0.19266035 0.09194289 -0.16238292
0001a0 01 23 35 bd 78 dc 19 be 65 40 fb bd ad 90 99 bd
       -0.044222835 -0.15025508 -0.12268142 -0.07498298
0001b0 58 92 31 be 0e 13 2d 3e 67 84 1d 3e ea 45 74 be
       -0.17340982 0.169018 0.15382539 -0.23854795
0001c0 62 7b 46 be 85 2a 94 3d f4 b6 07 be e7 e2 a7 bd
       -0.19383004 0.072346725 -0.13253385 -0.08197575
0001d0 76 a0 52 be 49 c3 dd 3d 5f 3b 69 3e 4c 78 cc bd
       -0.20569023 0.10828263 0.22776555 -0.09983882
0001e0 75 e6 fa bc 97 7a 85 be 0c b6 53 be 88 d4 65 be
       -0.030627469 -0.2607009 -0.20674914 -0.22444355
0001f0 bd 8c 8a 3e 77 60 4b 3b 31 45 86 3e b8 c2 40 3d
       0.270605 0.003103284 0.26224664 0.0470607
000200 48 5e eb 3c 69 96 a3 bd bd 82 40 3d 6a c2 15 3e
       0.02873148 -0.07987673 0.04699968 0.14624944
000210 df 43 89 3e 1f 3a d5 bd 45 6f 0e be 01 fa 28 3d
       0.26809594 -0.10411476 -0.13909633 0.041254047
000220 44 60 55 be 80 8a 93 bd f3 c2 77 be 5d ee 0b 3e
       -0.20837504 -0.07204151 -0.24195461 0.13665147
000230 0e 4f 56 3e d8 1e 89 3d f7 12 2a be e1 2b 04 be
       0.20928594 0.06695336 -0.16608797 -0.12907363
000240 10 e3 58 be e5 cf 75 bd b5 34 da bd 99 12 3b 3d
       -0.21180367 -0.060012717 -0.10654584 0.045672033
000250 16 ec 8a 3d 5d d2 8e 3d 86 a9 61 3d 7c 42 59 be
       0.06783311 0.06973717 0.05509331 -0.21216768
000260 74 61 1c be 4d 75 ce 3d 06 b4 9e bd 95 00 58 be
       -0.1527155 0.10080967 -0.077491805 -0.21093972
000270 ca b6 cc 3d bc 9b e9 bc e1 32 83 be 99 6f 6e 3e
       0.09995802 -0.028516643 -0.25624755 0.23284759
000280 2c fa 1e be d7 08 de 3c 80 9a 50 3e a1 4d 61 be
       -0.1552512 0.027103825 0.20371437 -0.2200227
000290 5d 17 5f be 51 0d 4d bd 0c 0d de bd 84 98 c5 3d
       -0.21786256 -0.050061528 -0.10842332 0.09648231
0002a0 07 a3 c1 bd 2f ea 7f 3e be 60 80 bd dc e6 75 bd
       -0.09454923 0.24991678 -0.06268452 -0.060034618
0002b0 b5 42 40 be ed dc 7e 3e 08 61 77 be 86 b6 6b 3e
       -0.18775447 0.24888964 -0.24158108 0.23018846
0002c0 10 1c 02 be 2c fa 1a 3e 41 37 16 3e eb c7 80 3e
       -0.12706017 0.15134495 0.14669515 0.25152525
0002d0 a0 2e 0f be 35 2e 5c bd 28 4a 89 be 12 c1 55 3e
       -0.1398263 -0.053755004 -0.2681439 0.20874432
0002e0 04 bf 25 bc 97 0a 90 3c c9 e4 a3 3c 9a f0 4a bd
       -0.010116342 0.017583175 0.020006554 -0.04954586
0002f0 37 af 80 3e a0 5f ef bd 5b 46 7a be cc 99 6f 3d
       0.25133678 -0.11688161 -0.24440901 0.05849628
000300 7c 2b 83 3e 98 1b 88 be dc 16 a4 3d c2 a6 de 3d
       0.25619113 -0.26583552 0.080121726 0.1087165
000310 ec b0 88 bd 08 96 5e 3e d8 fa 13 3e 23 f0 1c be
       -0.0667437 0.2173692 0.14451158 -0.1532598
000320 52 0a 39 be d0 0e ab 3d 4d dc 11 be e1 07 72 bb
       -0.18070343 0.08352435 -0.14244194 -0.0036930966
000330 4f 73 22 bc db 0c 2d be ec 32 0a be 31 3a 13 3d
       -0.009915187 -0.16899435 -0.13495988 0.035944168
000340 b5 45 7d be e5 55 1f 3e dd 7f 30 3c a8 57 6a 3c
       -0.24733622 0.1556011 0.0107726725 0.014303125
000350 23 d5 66 bd 59 20 fb 3d 0e 4e 38 be 84 cc 82 3e
       -0.056355607 0.12262029 -0.17998526 0.25546658
000360 5a 91 0a bc 69 db 8b bd 78 69 66 be 27 d0 f0 3d
       -0.008457506 -0.068289585 -0.2250117 0.11758452
000370 ec 38 29 3d 4b 45 4f 3e c5 6c 5b 3e c8 c7 09 be
       0.04131405 0.20241277 0.21428211 -0.13455117
000380 a4 16 22 bd 7a cb da 3d 5f de 8d 3d ce 78 33 be
       -0.039572373 0.10683341 0.069271795 -0.17526552
000390 4a 3f 7b 3e f2 60 6f be 62 c7 69 3e 12 ef 3f be
       0.24535862 -0.23376825 0.22829965 -0.18743542
0003a0 c0 fc d6 3d 37 b3 22 3e 82 54 85 bd f0 00 cc bd
       0.10497427 0.15888678 -0.06510259 -0.09961116
0003b0 82 72 82 be a1 a6 3f 3e 9d 89 9f 3d 88 bc 86 bc
       -0.25477988 0.18715908 0.077899195 -0.01644732
0003c0 73 38 3d 3e 81 d9 1e 3e f7 87 01 be 9a a8 14 3d
       0.18478565 0.15512659 -0.12649523 0.036293603
0003d0 f0 2f 29 3d e3 dd 10 3e 0a de 1f be d6 be 12 3e
       0.041305482 0.14147143 -0.15612045 0.1433061
0003e0 3f 57 0b be 4d 65 79 3e 8f cf 87 3e 98 b3 05 be
       -0.136075 0.2435505 0.26525542 -0.13056791
0003f0 8e 8c ea bd 4f fa f4 bd d5 6b 18 be b7 e3 4a bc
       -0.1145259 -0.11961805 -0.14884885 -0.012383393

weight f4 [64, 16]
000000 96 2e 32 3e 14 ee 19 be 3a 5f 44 be 25 8b 00 be
       0.17400584 -0.15032226 -0.19176951 -0.1255308
000010 36 bb 9d 3b 3c d3 c5 bb e0 bf 05 be fa 30 1f 3e
       0.004813577 -0.006037144 -0.13061476 0.15546027
000020 0b 4a 11 3d ba 1a e5 bd fe 93 1c be 23 f6 91 bd
       0.035471004 -0.11186738 -0.1529083 -0.07127025
000030 7f 4a 65 bd 92 bb 7e be 06 f4 7c 3e 1f f4 6b 3e
       -0.055979248 -0.2487624 0.24702463 0.23042344
000040 f3 1f 5b 3e 44 d5 00 be 9b ec 5a be e1 56 1e 3e
       0.21398906 -0.12581354 -0.2137932 0.15462829
000050 b9 1e 94 bc 06 a5 89 be e4 ed 8d be 2e 11 25 3e
       -0.018081056 -0.26883715 -0.2772056 0.16119835
000060 cb 02 49 bd 90 fc 1e bd 71 0b 81 3e 11 b7 0c be
       -0.04907493 -0.03881508 0.25204042 -0.1374171
000070 3c 2e 18 3c 63 0c b6 bd c4 b6 f2 bd 9b e6 41 be
       0.009288367 -0.08889081 -0.11851266 -0.18935625
000080 1e 31 6f bd d8 49 3d 3e a9 0b a4 3d fe a5 22 3e
       -0.05839645 0.184852 0.080100365 0.15883633
000090 d4 17 91 be af 12 3f 3e a8 5e 15 3e 7e 0a 09 3d
       -0.28338492 0.18659471 0.1458689 0.03345727
0000a0 84 1a ff 3b 87 54 4d be dc a1 76 3e bd 19 c8 bd
       0.0077851433 -0.20051776 0.24085182 -0.09770534
0000b0 8b bc a4 bd 98 51 9e bd 98 a5 e4 bd a9 74 80 bd
       -0.08043774 -0.077304065 -0.11164397 -0.06272251
0000c0 2b 60 b9 3d a3 7f 08 3e 16 7c 6d 3e 79 70 aa bd
       0.09051546 0.1332994 0.23191866 -0.08322234
0000d0 98 58 cc 3d db 4e 9e bd d1 ed 82 3e e4 02 d6 bd
       0.099778354 -0.07729884 0.25572065 -0.1044977
0000e0 6a 72 c5 bd bf 3d c7 bc 2d d8 f1 3d ac d9 51 3e
       -0.096409634 -0.024321435 0.118088104 0.20493191
0000f0 22 3d d3 3d 9a 5e 23 3e 04 56 da 3d 24 28 52 be
       0.103143945 0.15954056 0.106609374 -0.20523125
000100 80 8e 6d bd c7 c8 23 3e b3 82 a3 3d 68 5c 18 be
       -0.057997227 0.15994559 0.07983913 -0.14879
000110 4d 41 af bd e5 c8 fa 3d 32 a2 3e 3d f8 c7 5c 3e
       -0.08557377 0.12245349 0.0465414 0.21560657
000120 0b 72 7f be 67 10 fd bd ff 2f 41 be a7 a9 a8 bd
       -0.24945848 -0.12356644 -0.18865965 -0.082354836
000130 59 b8 7a 3e 6c 63 60 3e ea 86 8a 3e 2b 2f 15 be
       0.24484386 0.21912926 0.27056056 -0.14568774
000140 35 f7 fd bd 3c 8c 1f 3e 00 80 ad 3d 82 93 a8 3d
       -0.124006666 0.15580839 0.0847168 0.0823126
000150 80 d2 eb bd da 21 41 bd e4 bd 25 3e b4 e1 4b be
       -0.11514759 -0.047151424 0.16185719 -0.19910318
000160 ed 4d 6b 3e 10 68 a2 3d c9 da 35 3e fe d2 41 3d
       0.22978945 0.079300046 0.17759241 0.04732036
000170 6c 82 35 bd ed 4b 8a bd e3 c3 a4 3d c9 67 8c bd
       -0.044313833 -0.06752763 0.08045175 -0.06855733
000180 47 d2 8b 3d cd 1c 39 bd 97 0e 2e 3e 95 3f 39 3e
       0.068272166 -0.045193482 0.16997753 0.18090661
000190 30 d4 a3 3c 06 2a af 3d 19 ff 54 3e 2d f7 fe 3d
       0.01999864 0.08552937 0.20800437 0.12449489
0001a0 d7 72 48 be b8 9a 14 3d cd 87 7e be c6 69 d1 bc
       -0.19575058 0.036280364 -0.24856491 -0.025563132
0001b0 55 ca a5 bd 03 35 37 3d 6a 9a 82 be 21 0a 4f 3e
       -0.080952324 0.04472829 -0.25508434 0.20218708
0001c0 ee 34 4b be 9b ee 77 3e aa 10 9e 3a 0d 38 2e bb
       -0.1984441 0.24212115 0.001205941 -0.0026583702
0001d0 e2 08 71 be 37 01 2c bd e2 bd 98 bb f8 c9 89 be
       -0.23538545 -0.041993346 -0.0046613077 -0.26911902
0001e0 ba 6c ec bd b4 3d 64 bb 29 e3 11 3e 3c e2 bb bd
       -0.115441754 -0.0034826817 0.14246811 -0.0917401
0001f0 70 76 97 3c 89 59 91 bd 0c 77 8f 3d d7 24 78 3d
       0.018489093 -0.070971556 0.07005128 0.06058201
000200 2e 38 84 be 89 f2 74 3e 78 da 3c 3d 0a 4d 3c be
       -0.25824112 0.23920645 0.046106786 -0.18388763
000210 a7 f4 03 3e 57 65 3f 3e c9 d4 8c be 19 e4 be 3d
       0.12886296 0.18691002 -0.27506092 0.0932085
000220 43 3e 7a 3e 87 45 a4 bd b9 91 e7 3d 02 6a d5 bb
       0.24437813 -0.08021074 0.11307091 -0.0065128813
000230 47 c8 22 be b8 bc 07 be 3d b6 49 be 63 ac 15 bd
       -0.15896712 -0.13255584 -0.19698425 -0.036541354
000240 85 0c 49 be ab f2 21 3e 1c 91 55 be fc 40 2b bd
       -0.19633682 0.15815227 -0.20856136 -0.04181002
000250 69 00 11 be e3 0c 41 bd 21 98 7a 3e d6 74 82 be
       -0.14160313 -0.04713143 0.24472095 -0.25479764
000260 29 9f 7c 3c 6e 87 70 be ba 12 22 be 94 35 28 be
       0.015418806 -0.23489162 -0.15827456 -0.16426688
000270 e8 6f 2e be 8f 53 4f be 20 d1 24 be 65 6d 1b be
       -0.17034876 -0.20246719 -0.160954 -0.1517845
000280 d6 84 9f bc 0a ec 5e 3d cd e0 69 3d c7 9c 38 3e
       -0.01947252 0.054424323 0.057099152 0.18028556
000290 c0 12 e2 3d bd 4f 7c be 80 4b 85 be 68 a0 b7 3d
       0.110387325 -0.24639793 -0.26034164 0.08966142
0002a0 07 25 82 3e 7f e8 c0 3d f6 66 ac bc 59 0d 09 3e
       0.25418875 0.09419345 -0.02104519 0.13383998
0002b0 f3 c5 b3 3d 18 ba 08 be 7f 36 e6 bd 60 be 02 be
       0.0877799 -0.13352239 -0.11240863 -0.12767935
0002c0 23 ee 12 ba 4f e1 67 3e e2 e1 80 be 6f 32 67 3d
       -0.0005604943 0.22644542 -0.25172335 0.05644458
0002d0 22 07 88 bd 3d 9b 1e be dd 16 cb bd b9 47 e4 bd
       -0.066419855 -0.15488906 -0.0991647 -0.111464925
0002e0 3a 00 7a be 5a 79 2c 3d 6a 54 95 bd d6 b9 95 bc
       -0.24414149 0.042107917 -0.07291491 -0.01827709
0002f0 26 c7 d2 bd 08 0e 2b 3e 19 b6 7e 3e 59 64 bb bd
       -0.10291891 0.16704571 0.24874152 -0.09149999
000300 62 71 31 3e db 5a 83 be 6e 3a 06 3e 4d 05 f2 3d
       0.17328408 -0.25655255 0.13108227 0.11817417
000310 1f 05 28 3e 98 08 be bd e4 fe 7a 3e c9 11 ce 3d
       0.16408204 -0.09278983 0.24511296 0.10061986
000320 63 e1 cc 3d 32 4b 4e be 24 0e 84 3e 79 69 7a be
       0.100039266 -0.20145872 0.25792038 -0.24454297
000330 98 da 1b be 03 e6 9e 3d 95 b3 e3 bd 51 94 41 be
       -0.15220106 0.07758715 -0.11118237 -0.18904234
000340 fd d2 25 3d 07 f7 f4 3d 45 f5 0e 3e ea 78 2d 3e
       0.040484417 0.11961179 0.1396075 0.16940656
000350 80 8b 1a 3e 2a a5 8d 3d fc dc 02 bd 05 ea 47 3e
       0.15092278 0.06916268 -0.03194903 0.19522865
000360 53 01 e9 bc c1 59 22 be 4b ff 7f be 9a 68 84 bd
       -0.028443014 -0.15854551 -0.2499973 -0.06465264
000370 0d d8 b1 bd d0 1e 64 be 01 38 fe bc 0d 5f 16 bc
       -0.086837865 -0.22277379 -0.031032564 -0.009177935
000380 84 2c 04 3e 6a cd 85 be d4 18 c4 3d 55 53 2b bd
       0.12907606 -0.2613328 0.09575048 -0.04182752
000390 3e bc cd 3d ec 32 4f be b3 ae 1a bd a8 5a 67 3e
       0.1004567 -0.20234269 -0.037764262 0.22593176
0003a0 33 48 73 be 7d e6 2f be 53 48 60 be af 0d 50 be
       -0.2375801 -0.17177768 -0.2190259 -0.2031772
0003b0 73 5d 33 bd 43 73 49 3e 92 e6 c3 3d 46 50 8c be
       -0.043790292 0.19672875 0.09565462 -0.27404994
0003c0 7b 81 3d 3e e0 0b 34 be b0 cb b0 bd f9 57 3f be
       0.18506424 -0.17582655 -0.086326 -0.18685903
0003d0 9f e3 4f 3b 02 18 74 3e 3d ed 3a be 2e 57 03 be
       0.0031721366 0.23837283 -0.18254562 -0.12826225
0003e0 b8 77 3c 3e 82 6e 25 be 46 2b f4 bd ea 8f 1f 3e
       0.18405044 -0.16155437 -0.11922316 0.15582243
0003f0 a2 e9 5e be 7c 63 41 3e 3a 07 20 be a3 73 91 3d
       -0.21768811 0.18885607 -0.15627757 0.07102134

weight f4 [64, 16]
000000 09 21 a2 3c 7b 92 f8 bd 5b 85 6a 3e 36 e7 a9 3c
       0.019791143 -0.12137314 0.22902434 0.020740133
000010 71 02 47 be b3 2a 15 3e 24 e0 cf bd 8d 2b 1c bd
       -0.19434525 0.1456707 -0.10150173 -0.03812747
000020 38 df eb bd af 0b c2 3d 02 12 9e 3d 19 d7 3f be
       -0.11517185 0.09474885 0.077182785 -0.18734397
000030 27 7f 3a 3d f9 b3 a9 3d 9c 57 73 3c d4 41 3f 3e
       0.04553142 0.0828628 0.014852431 0.18677455
000040 0c b3 46 be b8 71 06 be 71 c5 9d 3d da 2f 3e bd
       -0.19404238 -0.13129318 0.077036746 -0.046432354
000050 28 50 b1 3c e6 65 87 be e6 88 31 be 7f 03 dd 3b
       0.021644667 -0.2644493 -0.17337379 0.0067448015
000060 4c de 38 bd c7 b7 f9 bd 44 6d c9 bd 0c b1 a3 bd
       -0.045133874 -0.12193256 -0.09835294 -0.079927534
000070 d9 62 39 3d 87 82 5c bd 18 2a a8 3d 80 8d 75 3e
       0.045260284 -0.053835418 0.08211154 0.23979759
000080 44 d8 0e be 42 28 27 3d 8d c8 fd 3d 42 34 7f bd
       -0.13949686 0.040809877 0.12391768 -0.062305696
000090 86 0c 7a be 2e e7 61 3e 4d 0f 30 be e3 18 27 be
       -0.2441884 0.22060844 -0.17193337 -0.16318087
0000a0 d5 eb 3f 3d 5f 9a 44 bd 2b f8 22 3d 68 7a f1 3d
       0.046855766 -0.047998782 0.039787453 0.11790925
0000b0 93 89 83 3e 93 29 29 3e 97 3a 67 be 1e 3e 6e 3e
       0.25690898 0.16519766 -0.22580944 0.23265883
0000c0 ff 0c eb 3d 0e 4e 83 be 7d 82 0b 3d f7 d2 dc 3d
       0.11477088 -0.25645489 0.03405999 0.10782426
0000d0 ff 64 62 3d 46 41 28 3e dc e6 71 3e 1f f3 46 bd
       0.0552721 0.1643115 0.23623222 -0.048571702
0000e0 13 5b 39 be ed 83 8a be 7c 12 7d 3e 26 2b cc 3d
       -0.18101148 -0.27053776 0.24714082 0.099691674
0000f0 09 f4 ca bd a6 0c 49 3e 2a d2 4b bd 8d bf 4f be
       -0.09909827 0.19633731 -0.049760975 -0.20287915
000100 56 90 80 3e 83 f8 b8 3d 7a 24 2e 3e a6 1b 69 be
       0.2511012 0.09031775 0.17006102 -0.22764453
000110 de 19 26 3e 9e ea d4 3d 45 54 d8 3d cd 7a 89 be
       0.16220805 0.10396312 0.10562948 -0.26851502
000120 6e 74 78 3c 28 57 ac 3d 5d fe 2b be 8f c3 81 be
       0.015164478 0.08415061 -0.1679625 -0.25344512
000130 6b dc 40 bb e0 a4 b1 3d 73 69 88 be 94 23 85 3e
       -0.0029428254 0.086740255 -0.2664295 0.26003706
000140 2c 15 50 be 5f 93 5a be 64 24 3c be a8 00 8b 3e
       -0.20320576 -0.2134528 -0.18373257 0.27148938
000150 21 e6 c1 bc 9f da 4e be e1 fe 5e be 9b 5c 5f 3e
       -0.023669304 -0.20200585 -0.21776916 0.2181267
000160 1e ff ef bd 46 1b e2 bd e2 ff e8 3d 82 ab 90 3e
       -0.117185816 -0.11040358 0.11376931 0.2825585
000170 c8 fe e4 bd e8 b6 65 bd 58 bc 6c 3e 00 fd 82 3e
       -0.11181408 -0.056082636 0.23118722 0.2558365
000180 8b 52 03 3d bf bb 14 be 21 a4 3d 3d bb d6 08 3c
       0.03206114 -0.14524744 0.046299104 0.008351977
000190 21 ad ae bc 76 09 29 3e 82 11 5b 3e 49 ac 8b 3e
       -0.021322789 0.16507515 0.21393397 0.2727988
0001a0 ed 33 43 3e 2e 80 2c be 32 a7 80 3e ef 35 5c 3e
       0.19062777 -0.16845772 0.2512756 0.21504949
0001b0 00 ae 18 be 4f bf 96 3d 02 b6 a8 3c ef 18 5d be
       -0.14910126 0.07360708 0.0205946 -0.21591543
0001c0 66 8a b8 bd fc b8 50 be 4b 1d 85 3c be 1d 22 3e
       -0.090107724 -0.20383066 0.01624932 0.15831658
0001d0 72 20 7a be fb c3 31 3e c0 1d dc 3c c5 a8 8e be
       -0.2442644 0.17359917 0.026869655 -0.27863136
0001e0 9f ee 16 bd 60 ea 73 bd 22 01 09 3d 7a c5 70 bd
       -0.03684866 -0.05954969 0.033448346 -0.05878208
0001f0 8d 6b 7d 3e bf 35 64 3d e8 de 81 3d 25 73 64 be
       0.24748059 0.05571532 0.06341344 -0.22309549
000200 71 d5 88 be ff ea 2e bc 5d 1a 01 be 52 27 8f 3e
       -0.26725343 -0.010676145 -0.12607713 0.27959687
000210 8c cf 8f be 10 f4 67 3e 31 5f 47 3d 0e a9 04 3e
       -0.28088033 0.22651696 0.048674766 0.12955114
000220 25 83 16 be 47 9f 27 be 60 bb 93 3e 14 04 98 bb
       -0.14698465 -0.16369353 0.28853893 -0.004639158
000230 d9 94 98 3c 29 a5 aa 3d 7f 8e 1a be 44 23 60 be
       0.018625664 0.08332283 -0.1509342 -0.21888453
000240 dc 4c a4 3d 22 46 0e be 8f 64 a6 3d 6c dd 0e 3e
       0.08022472 -0.13893941 0.08124649 0.13951653
000250 48 e4 36 be 2f ce 3d 3e 5d f4 61 bd c1 e5 41 3e
       -0.1786052 0.18535684 -0.055164684 0.189353
000260 4f c8 88 b9 c2 9e a5 3d b6 fd 41 bd 2e 08 d1 bd
       -0.00026089183 0.08086921 -0.0473611 -0.10206638
000270 51 ec a2 bd 98 da 38 bd ce 81 a4 3c e5 77 1b 3e
       -0.0795523 -0.045130342 0.020081427 0.15182455
000280 67 89 bc bd 29 53 0d 3e a7 60 ba bd 17 f1 8b 3e
       -0.09205895 0.13801254 -0.09100466 0.27332374
000290 4f 7d e0 bd 6b ab 87 3e 2d 9a b6 3d 88 39 5e be
       -0.10961401 0.2649797 0.089161254 -0.21701634
0002a0 45 ed 65 3e b5 b5 0f 3e 04 4d ac 3d 68 7a 91 bc
       0.22453792 0.1403416 0.08413127 -0.017758563
0002b0 6f ee f1 3d c5 bb 24 3c a3 08 56 be 76 18 24 3e
       0.11813056 0.010054533 -0.20901732 0.16024956
0002c0 8a 7b 81 3e 9f 9e 6d 3e 5d 76 82 3e 0c 3a 50 bd
       0.25289565 0.2320504 0.2548093 -0.050836608
0002d0 37 46 c9 3c 85 ee 39 bc ee 3e 7f be 4a 50 42 be
       0.024569614 -0.011348371 -0.2492635 -0.1897594
0002e0 00 58 53 3e 30 f7 fe bc 56 1e 76 3e ed 40 19 3e
       0.20639038 -0.031123728 0.2403501 0.14966173
0002f0 37 d2 2b be da 4e 0d bd d9 96 1f be 18 2a 2f 3e
       -0.1677941 -0.034499027 -0.15584888 0.17105901
000300 bb 9e 7b be 42 7c 74 3e 89 33 21 bd d9 e1 67 3c
       -0.2457227 0.23875526 -0.03935579 0.014152967
000310 80 a9 5d be 39 68 d1 3d 50 fa 6e 3e 9c ed 39 3e
       -0.2164669 0.10224957 0.23337674 0.18157047
000320 b4 9b d2 bd e9 8b 47 3e 07 4c 25 be aa e6 1a 3e
       -0.10283604 0.19486965 -0.16142283 0.15127054
000330 1d 38 5b 3e 49 dd 77 3e 93 ea 30 3e f5 ca 8a 3e
       0.21408124 0.24205507 0.17276983 0.2710797
000340 2c 24 29 3e 68 ed 5b 3e bb 27 77 3d 44 15 5f be
       0.16517705 0.21477282 0.060340624 -0.21785456
000350 6f 5c e0 3d 1a e1 a7 bd 78 cd 31 be 1b 8c 72 be
       0.1095513 -0.081972316 -0.17363536 -0.23686258
000360 d1 c4 ec bc a9 72 16 be 51 1b 09 3e 0c 31 16 be
       -0.028902443 -0.14692177 0.13389327 -0.14667147
000370 01 8e e3 bc 3d c8 67 be 1b ed ae 3c 5e da 75 bd
       -0.027777674 -0.22634979 0.021353295 -0.060022704
000380 be 1a 87 be bd 44 4b 3d 61 20 59 3e 4d 1e e5 bd
       -0.2638759 0.0496261 0.21203758 -0.1118742
000390 bb c8 27 be 1c c7 22 bd 41 4c 2e be 58 00 dd 3d
       -0.16385166 -0.039740667 -0.17021276 0.10791081
0003a0 29 e9 9b bd e2 72 38 3e 62 a7 ac bc 6e 95 c8 3d
       -0.07612831 0.18012574 -0.021075908 0.097941265
0003b0 35 b5 f5 3d 10 02 6d be 8a ef 23 be 4a e1 3c 3c
       0.11997453 -0.23145318 -0.16009346 0.0115283225
0003c0 4b bf 37 3e 7d c4 63 3e 43 db 06 3c 9c 99 27 3e
       0.17944066 0.22242923 0.008230987 0.16367191
0003d0 d0 53 d0 bd 89 aa cc 3d dd 42 86 3e 8e f0 c4 3d
       -0.10172236 0.099934645 0.26222888 0.09616195
0003e0 8a 67 64 be 19 ac b1 bd 0a cd 2f be 97 4c 48 3c
       -0.22305122 -0.08675403 -0.1716806 0.012225292
0003f0 6d e2 a0 bd 4b 71 7f 3e 3e 66 31 3c 76 81 5f be
       -0.07855687 0.24945562 0.010827599 -0.21826729

weight f4 [16, 64]
000000 75 4a 7f 3e 8d f1 24 be 33 30 93 3c d9 c8 a0 3d
       0.24930747 -0.1610777 0.01796732 0.07850809
000010 3b db a3 3d 12 2f 7f 3e 7d 92 d8 3c 69 98 09 be
       0.08000799 0.249203 0.026437039 -0.13437046
000020 e8 5c 77 3e 88 be 31 3e 1f e2 81 be 7f 40 b9 bd
       0.24156535 0.17357838 -0.2536783 -0.09045505
000030 b8 df 9f bd 2a 78 e8 3d 54 c2 b6 3d 3c 34 43 be
       -0.07806343 0.113510445 0.08923784 -0.19062895
000040 52 4f a7 3d 4d 1d 8c be 91 dc 7f 3e d4 16 7e bc
       0.08169426 -0.27366105 0.24986483 -0.015508372
000050 7f 52 3d 3e 8e 69 df 3d 10 f4 86 3e b7 5c 89 3e
       0.18488501 0.10908805 0.2635808 0.26828548
000060 b8 d6 6f 3e da 54 09 3e 26 70 1c 3d 1d 3d 3e 3e
       0.23421752 0.13411275 0.03819289 0.18578
000070 59 40 c0 3b e5 fb 1f 3d 06 d2 36 be 8f 24 b7 ba
       0.005867046 0.039058585 -0.17853555 -0.0013972687
000080 18 fe 44 bd 14 9b 0f 3e b3 6b d3 3d e9 6c 91 bc
       -0.048093885 0.14024001 0.10323276 -0.017752128
000090 ff 95 85 3e 4c f2 39 be e5 fa fb bd dc 05 4e be
       0.26091 -0.18158835 -0.12303714 -0.20119423
0000a0 cc 62 58 be fe a4 b8 bd b7 ad 90 bd 9f 24 58 3e
       -0.21131438 -0.09015845 -0.070643835 0.2110772
0000b0 6c 0e 33 3e 63 3c c8 bd ac fd 0e 3e 12 ca 8a be
       0.1748597 -0.09777143 0.13963956 -0.27107292
0000c0 24 43 5e be 9b cd 90 3d 0f 33 10 3e 6c b5 03 bd
       -0.217053 0.07070466 0.14081977 -0.03215544
0000d0 71 10 8d bd b4 b4 86 3e 91 b3 41 be 5f 25 3c be
       -0.068879016 0.2630974 -0.18916155 -0.18373631
0000e0 d7 85 7f 3e 2d f6 5f 3e 85 17 98 3c 89 db 8c 3e
       0.249534 0.21871252 0.018565902 0.27511242
0000f0 be 56 25 3e cc c9 10 3e 37 b8 96 3d 62 50 35 3d
       0.16146371 0.1413948 0.07359355 0.044266112
000100 65 0f 27 be 66 3b 2c 3e 19 0c 00 3e 7f 15 8c be
       -0.16314466 0.16819534 0.12504615 -0.2736015
000110 c4 b6 d5 bd a6 cb 3e 3e 6f 7d 7c 3e 30 36 5e 3d
       -0.104352504 0.18632373 0.24657224 0.054250896
000120 47 88 20 be 80 b0 15 bd 09 0d 9c 3d ae d8 00 be
       -0.15676986 -0.036545277 0.07619674 -0.12582657
000130 a2 77 10 bd 25 54 a3 3d 89 3f 3b 3e 6a 63 c8 bd
       -0.03527034 0.07975034 0.18285955 -0.09784587
000140 25 69 3e 3e b5 81 23 3d 59 0b e0 3d 03 aa f4 bd
       0.18594797 0.03991862 0.109396644 -0.1194649
000150 33 a2 39 3e 95 69 74 3e a0 b4 4d be 6c 32 c7 3a
       0.1812828 0.23868401 -0.20088434 0.0015197522
000160 66 e6 29 3e ef 68 dc bd f3 aa 36 3e b7 94 7c be
       0.16591796 -0.10762202 0.1783865 -0.24666105
000170 9d bb 17 3e bf 63 7f be 76 e9 61 be 50 b9 d1 3c
       0.14817663 -0.24940394 -0.22061715 0.02560106
000180 26 9b 73 bd 52 64 1a 3e 2d 09 35 3e c5 13 93 3d
       -0.059474133 0.15077332 0.17679282 0.07181505
000190 2d ca 59 3e 9e 35 3a 3e ea 3b 31 be a9 b2 06 be
       0.2126853 0.18184516 -0.17308012 -0.13154091
0001a0 46 e5 32 bd 82 bd 20 3d fc eb c4 3d 8a 99 0b 3e
       -0.043675683 0.03924323 0.09615323 0.13632789
0001b0 df bc a7 3d e5 80 84 3e bc 35 af 3d 96 93 00 be
       0.08190321 0.2587959 0.08555171 -0.125563
0001c0 8c 68 de 3d 19 94 05 be 4b 5c 47 be ca 72 44 3d
       0.108597845 -0.13044776 -0.194688 0.047961034
0001d0 74 f9 38 be ed b5 83 3d a0 30 84 3d a9 0b 64 3e
       -0.18063909 0.06431184 0.06454587 0.22270073
0001e0 b6 8c 8a be 02 16 66 be 32 e7 80 be 2a 9f 7b be
       -0.2706048 -0.22469333 -0.25176388 -0.24572435
0001f0 40 ff 7c be 8a bd 58 3e 1b 4e b8 3d bf d3 57 be
       -0.24706745 0.21166053 0.089992724 -0.21076868
000200 56 b0 92 3d 54 88 48 3e ce 6e 84 3e a5 e4 eb bd
       0.0716254 0.19583255 0.25865787 -0.1151822
000210 d7 4d 38 be cd 2b a4 bd d0 49 14 3d 62 5b 80 3b
       -0.17998444 -0.08016167 0.036203206 0.0039171437
000220 d3 e7 7d 3e 7f 95 66 3e 21 04 37 be bc ff 28 be
       0.24795465 0.22517966 -0.17872669 -0.16503805
000230 64 32 07 3c 4e c7 d1 bd cd 9d bf 3c 6f 6d 95 bd
       0.00825176 -0.102430925 0.023390675 -0.072962634
000240 6b 9b 73 be d1 19 a1 3d f5 a4 b1 3c b3 79 7e be
       -0.23789756 0.07866252 0.021685103 -0.24851112
000250 56 47 6e 3e 26 dc 35 3e 0e af 25 3e 5d ca cc bd
       0.232694 0.17759761 0.1618006 -0.09999535
000260 5d 92 83 be 20 70 86 3d 07 4f 85 bd bb cf d7 3d
       -0.25697604 0.06564355 -0.06509214 0.10537668
000270 f2 fd 40 3d 6b a1 33 3e 1d 1f 9e bc 4e b5 b8 3b
       0.04711718 0.17542045 -0.019301945 0.0056368476
000280 95 cf a0 3b e8 e1 19 3e 70 7a 5e 3e df a3 18 3e
       0.004907558 0.15027583 0.21726394 0.14906262
000290 76 e1 62 3e 9e 35 31 3e 98 3d 17 3d 38 01 73 3e
       0.22156319 0.1730561 0.036923975 0.23730934
0002a0 47 96 6d 3e 90 f2 11 bd 47 cc 27 be 87 b7 3f 3e
       0.23201858 -0.035631716 -0.1638652 0.18722354
0002b0 24 e0 b6 3d af 29 5c 3e ae 29 f5 bd d4 f4 58 3e
       0.0892947 0.21500276 -0.119708404 0.21187145
0002c0 2f ed a0 3d f7 22 f0 bd 9e bc a4 bc ff aa 82 be
       0.07857739 -0.11725419 -0.020109471 -0.25521085
0002d0 66 6e 80 3e 7b 5a 43 3e bf 62 0a 3e 47 82 9b bd
       0.25084227 0.19077484 0.13514231 -0.07593208
0002e0 0c eb ec 3d eb 78 3e be 41 4e 0e be aa 43 d9 3d
       0.11568269 -0.18600814 -0.13897039 0.10608609
0002f0 d6 88 c0 bd ee fc 3e be ca 2e 17 3d f9 5d d6 3d
       -0.094010994 -0.18651173 0.036909856 0.104671426
000300 b6 52 e4 3d 05 9a 4d be 18 8f 6d 3c 0b 69 83 bd
       0.11148588 -0.20078285 0.014499448 -0.0641652
000310 b0 57 a2 bb a4 17 38 be 59 cc 82 bc 29 55 3c bd
       -0.004954301 -0.17977768 -0.015966581 -0.045979653
000320 47 d8 25 3e fb 68 d7 3d fc 8c db bd bc cc 84 3c
       0.16195785 0.1051807 -0.1072025 0.016210906
000330 cc 17 bd 3d b3 c1 4c 3e 96 d8 2b be 09 ba 04 3e
       0.092330545 0.19995765 -0.1678184 0.12961592
000340 3f 2c bb 3d d0 d2 16 3d 35 38 4a 3e d4 04 29 be
       0.09139299 0.03682214 0.19748004 -0.16505748
000350 22 59 3b be b2 a1 56 3e d0 86 73 3e 62 b2 fd bd
       -0.1829572 0.2096012 0.23781896 -0.123875394
000360 70 57 2c 3e 11 54 13 be 17 39 00 bd 6b 2c 5c 3d
       0.1683023 -0.14387538 -0.031304445 0.053753298
000370 a6 07 60 3e 55 dd cb bd 41 4d 9e ba 56 9d f3 bd
       0.21877918 -0.09954325 -0.0012077467 -0.11895244
000380 36 2b 11 be 18 fc 02 3e 2d 4d 03 bd 0b b3 12 3e
       -0.1417664 0.12791479 -0.032056022 0.14326112
000390 fd 16 6c 3a 45 72 1d be a3 25 77 3e 2b 58 87 be
       0.0009006111 -0.15375622 0.24135451 -0.26434454
0003a0 93 c7 6a 3e ad ef 82 be 73 5f 5c be 4c 30 89 3e
       0.22927694 -0.25573483 -0.21520786 0.2679466
0003b0 67 d0 17 3e d4 6a d2 3c 57 c6 9b bd df fa eb bd
       0.14825593 0.025685705 -0.0760619 -0.11522459
0003c0 be de 03 be 99 a8 1d 3e 64 2e 4a 3e 9a 69 02 be
       -0.12877938 0.15396346 0.19744259 -0.12735596
0003d0 b6 07 ce bd d0 60 ab 3a 7e 2f e1 3d c3 76 96 3c
       -0.100600645 0.0013075117 0.109953865 0.018367177
0003e0 ac 38 8b be 62 1e b3 bd e7 55 15 be b4 65 1f 3e
       -0.27191675 -0.087460294 -0.1458355 0.1556614
0003f0 0d dd f1 3a e9 c6 1b be 51 84 4c 3d 43 f9 99 bd
       0.0018452719 -0.15212597 0.049930874 -0.07518246

bias f4 [16]
000000 41 c4 a0 bd ef 90 f1 bd 7a 7e 18 be 9c 90 b1 3d
       -0.078499325 -0.11795222 -0.14891997 0.0867016
000010 0b 66 76 3d 36 ef 27 bd b6 2e 59 bd 9c fb b5 bb
       0.06015591 -0.040999614 -0.053023063 -0.005553676
000020 bc b1 17 bd 89 15 92 bd 8d 38 02 3e 7d 2d cd bd
       -0.037034735 -0.07133014 0.12716885 -0.10018442
000030 ef 37 e2 bc 56 b4 25 3c 7a 09 d1 3d d8 1a db bd
       -0.027614562 0.010113796 0.10206886 -0.106984794

weight f4 [16]
000000 33 45 7a 3f d1 b3 83 3f 0e 0b 78 3f 53 9b 7e 3f
       0.9776184 1.0289251 0.9689187 0.99455756
000010 b3 80 78 3f 2d d0 78 3f 0a b7 7d 3f 1c 65 7f 3f
       0.9707138 0.9719265 0.9910742 0.99763656
000020 c3 02 78 3f 72 32 78 3f 66 11 85 3f da 7f 84 3f
       0.96879214 0.96951973 1.0395935 1.0351517
000030 00 02 83 3f 76 3c 83 3f 63 b9 77 3f 91 1c 81 3f
       1.0234985 1.0252826 0.9676725 1.0086843

bias f4 [16]
000000 00 06 a7 3c af 12 b7 bc 87 bc 06 bd 07 29 22 bb
       0.020388603 -0.022347776 -0.032894637 -0.0024743692
000010 4b fd b4 3c dc ee 32 bc 4f de d5 3b e8 39 7b 3c
       0.022093436 -0.010921206 0.0065267454 0.01533363
000020 94 0c 4f bc c5 59 83 3b d9 51 d0 3c 43 ba ce ba
       -0.012637276 0.004008504 0.025429653 -0.0015772063
000030 81 0c e7 3b 10 69 53 3c b4 e1 47 bc a4 44 1d 3c
       0.007051051 0.012903467 -0.012199808 0.009598885

weight f4 [64, 16]
000000 0f 16 c2 bd 77 80 2b be b4 37 3a bd 66 30 34 3e
       -0.094768636 -0.16748224 -0.04546328 0.17596588
000010 95 05 37 3e b0 d1 93 bd 5e 6e 53 be 20 01 7b be
       0.17873223 -0.07217729 -0.2064757 -0.24512148
000020 d0 80 33 3e 20 05 ac bd 4b 44 8c 3c ca 44 a6 3d
       0.17529607 -0.08399415 0.017122408 0.08118589
000030 45 20 85 3d b8 15 59 3e 51 34 81 3e 70 04 04 3e
       0.065002955 0.21199691 0.25235227 0.12892318
000040 55 30 11 bd 27 d2 06 3a f4 a7 59 3e 65 4e b8 bb
       -0.035446484 0.00051430095 0.21255475 -0.0056245797
000050 55 c3 b6 bd 1a 0c 89 be 48 4b 32 be 1f 98 80 3e
       -0.089239754 -0.26767045 -0.1741153 0.2511606
000060 30 57 61 be 7b 2e cc 3d 2a bc cb bc 16 c7 a8 3d
       -0.22005916 0.09969803 -0.024869997 0.08241098
000070 c8 79 9a bb 7f bf 20 3e 89 28 42 be d6 09 6c 3e
       -0.0047142245 0.1569805 -0.18960775 0.23050627
000080 eb 5c 6e 3e 57 c6 b5 bd 03 65 46 be d8 1f 37 3e
       0.23277633 -0.08875721 -0.1937447 0.17883241
000090 dc 95 06 be b8 74 87 3d 28 2c 85 be 67 8b 54 bd
       -0.13143104 0.06614059 -0.2601025 -0.051890757
0000a0 96 16 83 3c 79 67 3b be 87 0e 75 be a3 75 50 3e
       0.01600198 -0.1830119 -0.23931323 0.20357375
0000b0 bf cd 27 bd a5 8e 95 3d 03 b0 65 bb 1d 19 03 be
       -0.0409677 0.07302598 -0.0035047538 -0.12802549
0000c0 b5 70 07 3e a8 9d 47 be 3f f2 1c 3d 14 ff 04 3e
       0.13226588 -0.19493735 0.03831696 0.1298793
0000d0 d1 c1 1b 3e b3 6b 81 be 7f 79 01 be f7 7f 19 bd
       0.15210654 -0.2527748 -0.12644003 -0.037475552
0000e0 7f 61 fb 3c c2 32 7e 3e 0a 62 cd bd 31 fe e0 3d
       0.030686138 0.2482405 -0.10028465 0.10985983
0000f0 2b 16 ba bb 6c a6 42 be 9d 11 20 be b4 df ca 3d
       -0.005678912 -0.19008797 -0.15631719 0.09905949
000100 dc 44 58 3e f0 a9 ac 3d c5 77 80 be 3e e9 e0 bc
       0.21120018 0.084308505 -0.25091377 -0.027454969
000110 92 b9 1f 3e 23 5f 8c 3d 3d 1c 37 3e 4f ca 03 be
       0.15598133 0.068540834 0.17881866 -0.12870143
000120 a1 4b fc 3c 76 fc cc bd 82 98 58 3e 0b 3a 10 3d
       0.030797781 -0.100090906 0.21151927 0.035211604
000130 83 43 31 3d 81 4d 24 3e 1a 78 54 3e 42 9c 2a bd
       0.043277275 0.1604519 0.2074894 -0.041652925
000140 e2 00 1a be 11 f8 67 3e 5e 38 2b be b5 5e 79 3e
       -0.150394 0.22653224 -0.16720721 0.24352534
000150 49 d4 b8 3d 0e 80 6a be e2 a1 2b bc 41 66 ac 3d
       0.09024865 -0.22900411 -0.010475608 0.08417941
000160 e4 eb 0d bc f3 dd 5f 3e 83 9e 95 bd d1 4f 6d be
       -0.008662198 0.2186201 -0.07305624 -0.23174979
000170 a9 0c 70 bd 1e e9 fc 3d 7c f8 35 bd 72 0a c3 bd
       -0.058605824 0.12349151 -0.044426426 -0.09523477
000180 94 c8 46 bc 55 04 20 3e 2e b5 35 3e 3c cd bc 3b
       -0.0121327825 0.15626653 0.17744896 0.0057617705
000190 a0 a7 40 bd 41 a3 61 3c a5 82 b0 3d b2 93 80 be
       -0.04703486 0.013771833 0.086186685 -0.25112683
0001a0 15 04 1a 3e f4 0d a0 3c c1 56 3e be 84 70 ae bd
       0.1504062 0.019537903 -0.18587781 -0.085175544
0001b0 c8 3b 43 bd 52 c8 81 bd 74 99 74 3d 00 df 9f 3d
       -0.047664434 -0.06337036 0.059716657 0.07806206
0001c0 2c f5 ba 3d 90 77 42 be c8 ac 43 3e ad 02 3c 3c
       0.09128794 -0.18990922 0.1910888 0.011475247
0001d0 15 20 a4 3d af e5 9f 3d 73 9e 58 bd 7b ab 81 bc
       0.08013932 0.078074805 -0.052885484 -0.015828839
0001e0 93 17 be bd d5 61 d6 bd 6d 1f d8 3d e6 32 1e be
       -0.0928184 -0.10467879 0.10552869 -0.15449104
0001f0 9d 21 53 bc bf c8 27 be 9c 57 26 be 9b b2 2d be
       -0.012886432 -0.16385172 -0.16244358 -0.16962664
000200 69 42 3e 3e 91 aa 37 be d8 a5 58 3e b4 33 fe 3d
       0.18580021 -0.1793616 0.21157014 0.12412205
000210 14 bc 8a 3d e5 b7 fc 3d 3e ee c7 bd 4c b9 01 bd
       0.06774154 0.123397626 -0.09762238 -0.031670853
000220 70 82 ad bd 27 b8 a8 bc 19 c0 69 3e ba 58 8c 3d
       -0.084721446 -0.020595623 0.22827186 0.06852861
000230 36 f7 53 3e 93 d2 00 be bc ff f2 bd 66 28 67 3d
       0.20699772 -0.12580328 -0.11865184 0.05643501
000240 47 e7 2f 3e 54 4a 83 3d 04 05 35 be 13 9f 6f 3e
       0.17178069 0.06410661 -0.17677695 0.23400526
000250 1f 74 87 3d 26 ca b2 38 11 e8 0a bd 0b e3 92 bd
       0.06613945 8.5253545e-05 -0.033912722 -0.07172211
000260 31 07 09 be 50 c4 ef bc 2e 21 46 3e 1f 1a a5 3d
       -0.1338165 -0.029268414 0.19348595 0.08061623
000270 d5 2b ac bd 4b 17 e9 3d 22 4f 2a be a2 3f 13 be
       -0.08406798 0.11381396 -0.1663175 -0.14379743
000280 1f c6 4a be 9d 87 6f 3e e8 60 83 be 4b 67 ae 3d
       -0.1980214 0.23391576 -0.2565987 0.08515795
000290 6e 50 ff 3d eb c9 47 3e 35 fc 57 3e 36 af 3e 3e
       0.124665126 0.1951062 0.21092303 0.18621525
0002a0 e8 8f 87 3e a2 c0 5a bd 48 e3 6f be a1 b4 55 be
       0.2647698 -0.053406365 -0.23426545 -0.20869686
0002b0 69 26 43 be 5f 78 13 3e 27 1d 39 3e 85 27 56 3e
       -0.19057621 0.14401387 0.18077527 0.20913513
0002c0 d3 23 96 bd a7 b2 83 3e 3a fa 6f 3e 2d 79 cf bd
       -0.07331052 0.25722238 0.23435298 -0.10130534
0002d0 52 bd 4a 3e 3b d8 74 3e f7 16 40 3e d9 0d fb bd
       0.19798782 0.2391061 0.1875876 -0.122585006
0002e0 d7 a0 59 3e ff 80 e6 3d c7 54 4c be 93 d7 c8 3d
       0.21252762 0.11255073 -0.19954215 0.098067425
0002f0 ec 43 06 3d 10 4d 3b bd da e8 04 3e e6 65 34 3e
       0.03277962 -0.04572779 0.12979451 0.17616996
000300 8c 3f e0 3d ad d8 86 be a9 31 86 be 65 c0 d9 3d
       0.109496206 -0.26337186 -0.26209763 0.106323995
000310 a9 a7 d7 bd d9 db 11 3e ad ba 3d 3d a5 ed 2a be
       -0.105300255 0.14244021 0.046320606 -0.16692217
000320 13 80 08 be 0b 79 03 be 05 97 cb 3d fb 4f 41 3e
       -0.13330106 -0.12839143 0.09940914 0.18878166
000330 70 08 54 be 1e ea 53 be 8c e0 74 3e 80 08 78 3e
       -0.20706344 -0.20694777 0.23913783 0.24221992
000340 f0 b8 86 be 42 8f 2c 3e b5 6e 54 be ab ca 43 3e
       -0.2631297 0.16851524 -0.20745356 0.1912028
000350 6b ea 96 bd 07 df fa 3d 30 e1 aa bd 84 07 16 3e
       -0.073689304 0.1224957 -0.08343732 0.14651304
000360 95 ab 5a 3e ed 53 7a 3e db 21 eb 3d 37 95 55 3e
       0.21354516 0.24446078 0.11481067 0.20857702
000370 ca a2 88 be bb cc 09 3d 53 2c 22 3c 20 65 3c be
       -0.26686698 0.03364251 0.009898263 -0.18397951
000380 9f c5 78 3e 4a 2c 16 be c3 61 52 3e 3f 1f af bd
       0.24294136 -0.14665332 0.20545106 -0.085508816
000390 a2 eb 42 be a6 f1 87 3e ee d7 24 be 1c 03 71 3e
       -0.190352 0.2655155 -0.16097996 0.23536342
0003a0 9e 6e 4d be 51 8f 7e be fe 35 40 be dd cf 55 3e
       -0.20061728 -0.24859358 -0.18770596 0.20880075
0003b0 d9 83 f3 3d fd c9 8c 3e 0b 64 8f 3d 0e e9 f3 bd
       0.11890382 0.27497855 0.070015036 -0.11909686
0003c0 13 67 ca bd 9d fe ec bd d5 68 8a be c9 d2 97 bd
       -0.09882941 -0.11572001 -0.27033105 -0.07413251
0003d0 be 4d e7 3c 0e f6 0e 3e 2d a3 04 bd e7 4d aa bc
       0.028235313 0.1396105 -0.03238218 -0.0207891
0003e0 1c 3b e8 bc 51 74 45 3e 49 18 6e be 22 c7 5b 3e
       -0.028348498 0.19282652 -0.23251452 0.21462682
0003f0 64 fd 65 3e 2e 34 87 3d 0e 33 1f be 52 ed 45 be
       0.22459942 0.06601749 -0.1554682 -0.19328812
